…
  value: <class 'stable_baselines3.common.buffers.DictRolloutBuffer'>
rollout_buffer_kwargs:
  desc: null
  value: '{}'
clip_range_vf:
  desc: null
  value: None
normalize_advantage:
  desc: null
  value: 'True'
target_kl:
  desc: null
  value: None
lr_schedule:
  desc: null
  value: <function get_schedule_fn.<locals>.<lambda> at 0x000001D2FB496340>
rollout_buffer:
  desc: null
  value: <stable_baselines3.common.buffers.DictRolloutBuffer object at 0x000001D2FB4BBE90>
policy:
  desc: null
  value: "ByteFightMaskedPolicy(\n  (features_extractor): ByteFightFeaturesExtractor(\n\
    \    (cnn): Sequential(\n      (0): Conv2d(9, 32, kernel_size=(3, 3), stride=(1,\
    \ 1), padding=(1, 1))\n      (1): BatchNorm2d(32, eps=1e-05, momentum=0.1, affine=True,\
    \ track_running_stats=True)\n      (2): ReLU()\n      (3): ResidualBlock(\n  \
    \      (conv1): Conv2d(32, 32, kernel_size=(3, 3), stride=(1, 1), padding=(1,\
    \ 1))\n        (bn1): BatchNorm2d(32, eps=1e-05, momentum=0.1, affine=True, track_running_stats=True)\n\
    \        (conv2): Conv2d(32, 32, kernel_size=(3, 3), stride=(1, 1), padding=(1,\
    \ 1))\n        (bn2): BatchNorm2d(32, eps=1e-05, momentum=0.1, affine=True, track_running_stats=True)\n\
    \      )\n      (4): MaxPool2d(kernel_size=2, stride=2, padding=0, dilation=1,\
    \ ceil_mode=False)\n      (5): Conv2d(32, 64, kernel_size=(3, 3), stride=(1, 1),\
    \ padding=(1, 1))\n      (6): BatchNorm2d(64, eps=1e-05, momentum=0.1, affine=True,\
    \ track_running_stats=True)\n      (7): ReLU()\n      (8): SpatialAttention(\n\
    \        (conv): Conv2d(64, 1, kernel_size=(1, 1), stride=(1, 1))\n      )\n \
    \     (9): MaxPool2d(kernel_size=2, stride=2, padding=0, dilation=1, ceil_mode=False)\n\
    \      (10): Conv2d(64, 128, kernel_size=(3, 3), stride=(1, 1), padding=(1, 1))\n\
    \      (11): BatchNorm2d(128, eps=1e-05, momentum=0.1, affine=True, track_running_stats=True)\n\
    \      (12): ReLU()\n      (13): SpatialAttention(\n        (conv): Conv2d(128,\
    \ 1, kernel_size=(1, 1), stride=(1, 1))\n      )\n      (14): MaxPool2d(kernel_size=2,\
    \ stride=2, padding=0, dilation=1, ceil_mode=False)\n      (15): Flatten(start_dim=1,\
    \ end_dim=-1)\n      (16): Linear(in_features=8192, out_features=256, bias=True)\n\
    \      (17): LayerNorm((256,), eps=1e-05, elementwise_affine=True)\n      (18):\
    \ ReLU()\n      (19): Dropout(p=0.1, inplace=False)\n    )\n    (mlp): Sequential(\n\
    \      (0): Linear(in_features=15, out_features=64, bias=True)\n      (1): LayerNorm((64,),\
    \ eps=1e-05, elementwise_affine=True)\n      (2): ReLU()\n      (3): Linear(in_features=64,\
    \ out_features=64, bias=True)\n      (4): LayerNorm((64,), eps=1e-05, elementwise_affine=True)\n\
    \      (5): ReLU()\n      (6): Dropout(p=0.1, inplace=False)\n    )\n    (fusion):\
    \ FeatureFusion(\n      (fuse): Sequential(\n        (0): Linear(in_features=320,\
    \ out_features=256, bias=True)\n        (1): LayerNorm((256,), eps=1e-05, elementwise_affine=True)\n\
    \        (2): ReLU()\n        (3): Dropout(p=0.1, inplace=False)\n      )\n  \
    \  )\n  )\n  (pi_features_extractor): ByteFightFeaturesExtractor(\n    (cnn):\
    \ Sequential(\n      (0): Conv2d(9, 32, kernel_size=(3, 3), stride=(1, 1), padding=(1,\
    \ 1))\n      (1): BatchNorm2d(32, eps=1e-05, momentum=0.1, affine=True, track_running_stats=True)\n\
    \      (2): ReLU()\n      (3): ResidualBlock(\n        (conv1): Conv2d(32, 32,\
    \ kernel_size=(3, 3), stride=(1, 1), padding=(1, 1))\n        (bn1): BatchNorm2d(32,\
    \ eps=1e-05, momentum=0.1, affine=True, track_running_stats=True)\n        (conv2):\
    \ Conv2d(32, 32, kernel_size=(3, 3), stride=(1, 1), padding=(1, 1))\n        (bn2):\
    \ BatchNorm2d(32, eps=1e-05, momentum=0.1, affine=True, track_running_stats=True)\n\
    \      )\n      (4): MaxPool2d(kernel_size=2, stride=2, padding=0, dilation=1,\
    \ ceil_mode=False)\n      (5): Conv2d(32, 64, kernel_size=(3, 3), stride=(1, 1),\
    \ padding=(1, 1))\n      (6): BatchNorm2d(64, eps=1e-05, momentum=0.1, affine=True,\
    \ track_running_stats=True)\n      (7): ReLU()\n      (8): SpatialAttention(\n\
    \        (conv): Conv2d(64, 1, kernel_size=(1, 1), stride=(1, 1))\n      )\n \
    \     (9): MaxPool2d(kernel_size=2, stride=2, padding=0, dilation=1, ceil_mode=False)\n\
    \      (10): Conv2d(64, 128, kernel_size=(3, 3), stride=(1, 1), padding=(1, 1))\n\
    \      (11): BatchNorm2d(128, eps=1e-05, momentum=0.1, affine=True, track_running_stats=True)\n\
    \      (12): ReLU()\n      (13): SpatialAttention(\n        (conv): Conv2d(128,\
    \ 1, kernel_size=(1, 1), stride=(1, 1))\n      )\n      (14): MaxPool2d(kernel_size=2,\
    \ stride=2, padding=0, dilation=1, ceil_mode=False)\n      (15): Flatten(start_dim=1,\
    \ end_dim=-1)\n      (16): Linear(in_features=8192, out_features=256, bias=True)\n\
    \      (17): LayerNorm((256,), eps=1e-05, elementwise_affine=True)\n      (18):\
    \ ReLU()\n      (19): Dropout(p=0.1, inplace=False)\n    )\n    (mlp): Sequential(\n\
    \      (0): Linear(in_features=15, out_features=64, bias=True)\n      (1): LayerNorm((64,),\
    \ eps=1e-05, elementwise_affine=True)\n      (2): ReLU()\n      (3): Linear(in_features=64,\
    \ out_features=64, bias=True)\n      (4): LayerNorm((64,), eps=1e-05, elementwise_affine=True)\n\
    \      (5): ReLU()\n      (6): Dropout(p=0.1, inplace=False)\n    )\n    (fusion):\
    \ FeatureFusion(\n      (fuse): Sequential(\n        (0): Linear(in_features=320,\
    \ out_features=256, bias=True)\n        (1): LayerNorm((256,), eps=1e-05, elementwise_affine=True)\n\
    \        (2): ReLU()\n        (3): Dropout(p=0.1, inplace=False)\n      )\n  \
    \  )\n  )\n  (vf_features_extractor): ByteFightFeaturesExtractor(\n    (cnn):\
    \ Sequential(\n      (0): Conv2d(9, 32, kernel_size=(3, 3), stride=(1, 1), padding=(1,\
    \ 1))\n      (1): BatchNorm2d(32, eps=1e-05, momentum=0.1, affine=True, track_running_stats=True)\n\
    \      (2): ReLU()\n      (3): ResidualBlock(\n        (conv1): Conv2d(32, 32,\
    \ kernel_size=(3, 3), stride=(1, 1), padding=(1, 1))\n        (bn1): BatchNorm2d(32,\
    \ eps=1e-05, momentum=0.1, affine=True, track_running_stats=True)\n        (conv2):\
    \ Conv2d(32, 32, kernel_size=(3, 3), stride=(1, 1), padding=(1, 1))\n        (bn2):\
    \ BatchNorm2d(32, eps=1e-05, momentum=0.1, affine=True, track_running_stats=True)\n\
    \      )\n      (4): MaxPool2d(kernel_size=2, stride=2, padding=0, dilation=1,\
    \ ceil_mode=False)\n      (5): Conv2d(32, 64, kernel_size=(3, 3), stride=(1, 1),\
    \ padding=(1, 1))\n      (6): BatchNorm2d(64, eps=1e-05, momentum=0.1, affine=True,\
    \ track_running_stats=True)\n      (7): ReLU()\n      (8): SpatialAttention(\n\
    \        (conv): Conv2d(64, 1, kernel_size=(1, 1), stride=(1, 1))\n      )\n \
    \     (9): MaxPool2d(kernel_size=2, stride=2, padding=0, dilation=1, ceil_mode=False)\n\
    \      (10): Conv2d(64, 128, kernel_size=(3, 3), stride=(1, 1), padding=(1, 1))\n\
    \      (11): BatchNorm2d(128, eps=1e-05, momentum=0.1, affine=True, track_running_stats=True)\n\
    \      (12): ReLU()\n      (13): SpatialAttention(\n        (conv): Conv2d(128,\
    \ 1, kernel_size=(1, 1), stride=(1, 1))\n      )\n      (14): MaxPool2d(kernel_size=2,\
    \ stride=2, padding=0, dilation=1, ceil_mode=False)\n      (15): Flatten(start_dim=1,\
    \ end_dim=-1)\n      (16): Linear(in_features=8192, out_features=256, bias=True)\n\
    \      (17): LayerNorm((256,), eps=1e-05, elementwise_affine=True)\n      (18):\
    \ ReLU()\n      (19): Dropout(p=0.1, inplace=False)\n    )\n    (mlp): Sequential(\n\
    \      (0): Linear(in_features=15, out_features=64, bias=True)\n      (1): LayerNorm((64,),\
    \ eps=1e-05, elementwise_affine=True)\n      (2): ReLU()\n      (3): Linear(in_features=64,\
    \ out_features=64, bias=True)\n      (4): LayerNorm((64,), eps=1e-05, elementwise_affine=True)\n\
    \      (5): ReLU()\n      (6): Dropout(p=0.1, inplace=False)\n    )\n    (fusion):\
    \ FeatureFusion(\n      (fuse): Sequential(\n        (0): Linear(in_features=320,\
    \ out_features=256, bias=True)\n        (1): LayerNorm((256,), eps=1e-05, elementwise_affine=True)\n\
    \        (2): ReLU()\n        (3): Dropout(p=0.1, inplace=False)\n      )\n  \
    \  )\n  )\n  (mlp_extractor): MlpExtractor(\n    (policy_net): Sequential(\n \
    \     (0): Linear(in_features=256, out_features=128, bias=True)\n      (1): ReLU()\n\
    \      (2): Linear(in_features=128, out_features=64, bias=True)\n      (3): ReLU()\n\
    \    )\n    (value_net): Sequential(\n      (0): Linear(in_features=256, out_features=128,\
    \ bias=True)\n      (1): ReLU()\n      (2): Linear(in_features=128, out_features=64,\
    \ bias=True)\n      (3): ReLU()\n    )\n  )\n  (action_net): ActionSpecificHead(\n\
    \    (common): Linear(in_features=64, out_features=64, bias=True)\n    (heads):\
    \ ModuleList(\n      (0-9): 10 x Linear(in_features=64, out_features=1, bias=True)\n\
    \    )\n  )\n  (value_net): Linear(in_features=64, out_features=1, bias=True)\n\
    )"
_logger:
  desc: null
  value: <stable_baselines3.common.logger.Logger object at 0x000001D43835DC10>
